Statistical_Language_Modelling/model1.pth (torch, 669120 bytes, 9 tensors)

embedding.weight f4 [4, 128]
00000000: 49e0 013f a1be 233f 252e c53e fde9 77be
00000010: 7952 993e 3a06 ae3f ffaf 1c40 3c37 a23f
00000020: fcec 873d 403e e23d ab15 0140 0336 bbbe
00000030: 7a8e f8be dc07 fd3d f056 eb3e cac8 943d
00000040: 6093 983a eb71 98be f21e 87bf d2e6 dd3f
00000050: 87b3 9dbf 0e95 2cbe f7c6 adbd 04ea 333f
00000060: de0e dfbf 48af 04bf 18a2 10bf eedb b63e
00000070: 04eb 90bd ad2f 75bf 4041 ae3f 8ea7 5b3b
00000080: 7e0b 6abf 76e1 c93f 669f f43e 9592 aebd
00000090: a400 79bf e30c 93bf 56d4 5a3f c5e0 0c3f
000000a0: 21a7 4b3f 6044 9abf c6fa 86be 6038 cdbf
000000b0: 18d1 9d3e 7c07 91bf be61 8c3e 02f8 173f
000000c0: 1683 4b3e 91b2 b5bf c1f6 6a3f 1808 933f
000000d0: 7321 19be 7577 8a3d c25c 14bf bb33 0ec0
000000e0: 98d0 483f 794f a63f d5c5 6c3e 72d6 e93e
000000f0: 487b 80bf a52b 453f b560 d83e e1c7 97bd
00000100: 2cfb d8bf 8f49 d5bf 72ee 51bf ab1a 1e40
00000110: 4f78 c73d c8ac 4cbe f3fb c23f af68 ccbe
00000120: 53c9 85bf 717f febe 67e0 4c3e 6f16 bbbf
00000130: aec5 643f 5bf8 ad3f cfd6 0940 7660 e7be
00000140: 8d38 e33f 5926 83bf 7b4b 85be e1e6 72bf
00000150: 648e bdbf 1f6b 813f 6523 2dbf e2c1 0a40
00000160: 6bf9 393f 79fd e43e 8111 1cbf ef69 823e
00000170: fca9 4e3f 078d 4ebe 3ebc 0dbf 8303 d9bf
00000180: 38d4 d53c 91d9 c43f 19ae 68bf 8afd 11c0
00000190: 5841 d43f dc4c b53f 566c ddbe 5cb2 0340
000001a0: 8dc4 16bd dd32 fe3e aff2 ee3f ac30 6e3c
000001b0: 3eaf c8be 177d 9ebf 2eae 8fbe 4858 81bf
000001c0: 6a05 edbf 894a 65be c72b 1c3f 13f4 98bf
000001d0: 8c4b 493e 9a02 433f a74c 1040 2db6 a23f
000001e0: d5cc d6be e634 c1bf 787f 933f e8e0 1b3f
000001f0: 0ba8 d1be b1f9 a13f 9dfa 4b3f 6d5e c4be
00000200: 366a ad3f 5be6 f13e 06b2 ddbf e9ac 74bf
00000210: a2cc e2be 46c5 47be 6c65 3cbe e539 d23f
00000220: b6b7 bf3f f3a6 debf 5387 04be 5776 473f
00000230: 09a9 89be 5657 89be 3b52 703f dc29 b1bb
00000240: b701 913f 7b37 bdbd 390e ea3f 460e 8dbf
00000250: fb47 913f e34d 55bf ecfd 213f eeaa 0e3e
00000260: 90c9 20be 9ad3 3040 a216 6a3f 06ae 48be
00000270: b26f 413e 28e7 1b3f 1d36 d93f 7101 9d3f
00000280: 279d c93f af1b 31bf f676 f4be 77c9 8fbf
00000290: 0977 573e fb52 f03d 3a04 35bf f4a3 3fbf
000002a0: 6cf2 c33f 810b a7be d2e0 273f f92f b6be
000002b0: 7583 7cbf 31a5 7d3d 7d04 7e3f cc7c 85bf
000002c0: e7fd 87bf 7796 503e 7f60 003e 6c52 adbf
000002d0: 9dc5 753e 7b0b a63e db48 6b3f 3e99 283f
000002e0: 2952 b3bf 2e5a 1e3f 240c 4dbc 6498 4b3f
000002f0: ab0f 7cbf 5bb9 bc3d 15cf b5bf 90de ab3e
00000300: a61f babf de6b 823f ae73 c5bd b585 18bf
00000310: a7d7 74bf 959a 6f3e c194 03be 4126 d83f
00000320: 6f0a 64be 2867 a03f 3cc7 70be 9b5d e0bf
00000330: 1680 e4be 57e7 5e3f d05c b6bd 8285 a1bf
00000340: 9ceb 563f db9c 263f d590 263f c99a 1c3f
00000350: 2c00 c03e f092 503f efaa a83d 1afe 6ebf
00000360: 5e4b fb3e 6b55 1a3e 592d b1bf 90b0 07bf
00000370: 839d 693f a43b c03e 262d 31c0 8cf7 c23f
00000380: 97ff a83f 86b2 a6be 1efc 9f3e 9a74 8ebe
00000390: 6fb2 77bf 1c09 c23f 9882 bd3e 59e4 48bf
000003a0: ac87 63bf 0f3d 29be c84f 7e3f d8b5 c83c
000003b0: f1e6 513e dca9 87bf 79f4 abbe b7c6 e7bf
000003c0: 4a31 cfbd 17eb 393f fa21 98bd c4d1 2e3f
000003d0: 1ab5 e43e 1b78 edbe 2e91 9f3f d5c9 493e
000003e0: 5b38 01bf 164a 923f 2711 3d3f 2126 033f
000003f0: 7378 b33d 605b 1dbf 2fb9 82bf aa6d 95be
0.50732857 0.6396275 0.38511768 -0.24210353 0.29945734 1.359565 2.448242 1.2673106
0.06636998 0.110470295 2.0169475 -0.36564645 -0.485462 0.12355015 0.45964766 0.0726486
0.0011640601 -0.29774413 -1.0556319 1.7336066 -1.2320412 -0.16853735 -0.08485215 0.70278955
-1.7426412 -0.5182996 -0.56497335 0.35714668 -0.07076076 -0.9577587 1.3613663 0.0033516618
-0.91423786 1.577193 0.4777786 -0.08524052 -0.972666 -1.1488308 0.8548025 0.5503047
0.79551893 -1.2052116 -0.263632 -1.6032829 0.30823588 -1.1330409 0.2741832 0.59362805
0.19874224 -1.4195119 0.91782767 1.1486845 -0.14954166 0.06761066 -0.5795404 -2.2219074
0.7844329 1.2993003 0.23122342 0.4567142 -1.0037622 0.7701972 0.42261282 -0.07411171
-1.6951652 -1.6663073 -0.82004464 2.4703777 0.09739744 -0.19987786 1.5233139 -0.39923617
-1.0452064 -0.49706605 0.20007478 -1.4616221 0.89364135 1.3591417 2.1537359 -0.4519078
1.7751633 -1.0246078 -0.2603415 -0.94883543 -1.4809079 1.0110816 -0.6763213 2.1680837
0.72646207 0.44724634 -0.6096421 0.25471446 0.80728126 -0.20170985 -0.5536536 -1.6954197
0.02610217 1.5378896 -0.9089065 -2.2810998 1.6582441 1.4164081 -0.43246716 2.0577612
-0.03680854 0.4964818 1.8667811 0.0145379715 -0.391962 -1.2381924 -0.28062576 -1.0105066
-1.8517277 -0.22391714 0.610043 -1.1949486 0.19657725 0.76175845 2.2546785 1.2711846
-0.4195315 -1.5094268 1.1523275 0.60890055 -0.4094852 1.2654325 0.7967928 -0.3835329
1.3548038 0.4724606 -1.7319953 -0.9557634 -0.44296747 -0.19508848 -0.18398064 1.6423918
1.4977939 -1.7394699 -0.12942247 0.7791495 -0.26886776 -0.26824445 0.93875474 -0.0054066014
1.1328648 -0.09239098 1.828559 -1.1019981 1.1350092 -0.8332197 0.6327808 0.13932392
-0.1570189 2.7629151 0.91440785 -0.19597635 0.18890265 0.6089959 1.6969639 1.2266065
1.5751084 -0.69182867 -0.4774701 -1.1233357 0.21041502 0.11734577 -0.70709574 -0.7485955
1.5308356 -0.32625964 0.65577424 -0.35583475 -0.9863809 0.061925117 0.992256 -1.042871
-1.062436 0.20369898 0.1253681 -1.3540778 0.24001165 0.32430634 0.91908044 0.6585883
-1.4009448 0.61856353 -0.012515102 0.79529405 -0.9846141 0.09215041 -1.4203821 0.3356824
-1.4540908 1.0189168 -0.09641205 -0.5957902 -0.9564156 0.23398812 -0.12849714 1.6886674
-0.22269605 1.2531481 -0.23513502 -1.7528566 -0.44628972 0.87071747 -0.08904421 -1.2618868
0.8395326 0.6508309 0.65064746 0.61173683 0.3750013 0.8147421 0.08235728 -0.9335648
0.49080938 0.15071647 -1.3841964 -0.5300379 0.9125597 0.37545502 -2.7683806 1.5231795
1.3203 -0.32558078 0.31247038 -0.27823335 -0.96756643 1.515903 0.37013698 -0.7847343
-0.88878894 -0.16527198 0.99340487 0.024500772 0.20498253 -1.0598712 -0.33584955 -1.8107518
-0.10116823 0.72624344 -0.074283555 0.68288827 0.4466942 -0.46380696 1.246618 0.19705899
-0.50476617 1.1428859 0.738543 0.51230055 0.08763208 -0.6146755 -1.0212764 -0.2918523

lstm.weight_ih_l0 f4 [512, 128]
00000000: c0af 7cbd 6a01 fcbc d49c f1bb e8a9 76bd
00000010: 9243 98bd fe26 103c cb38 9c3d 58ab 4b3d
00000020: 7e96 d2bd 8bc1 323c 5587 3ebd 8982 523d
00000030: ba8a 84bd 1d16 03bd 8f65 afbd f38b b83c
00000040: cbdb 153c dc46 573d 70db f53c 79f9 e8bc
00000050: 44f8 a63a 4649 433d 7af3 983d e3ea 793d
00000060: 5499 42bd 1074 52bd 4c66 cebd efdf 113c
00000070: 8d00 f73c 678a 123d 7ff9 af3c ae6f 243d
00000080: 7ff1 ec3c 8297 c03d 4834 243d 0c6d eb3d
00000090: e4d9 163d af20 ef3c e195 a53d 9975 c93d
000000a0: 19c1 85bd 1edd b2bd e439 b3bd 1863 82bd
000000b0: ec50 e53c 13b9 9bbd ae43 5b3c 0009 963d
000000c0: 7857 613d 247c 9bbd 2bfb 5e3d 5740 95bd
000000d0: 76d0 c2bd 226a 19bd 3e23 9dbc 8c39 4cbb
000000e0: d4db fdba 6971 6d3d ecff a1bd cd46 b2bc
000000f0: 76de 3cbc 130f 6e3d d511 c73d c206 96bd
00000100: 9bfd b4bd 3c4a 29bc 69ab 96bd 45f4 833d
00000110: 8e48 d43d f04e 023d 5417 dbbc 8873 b5bc
00000120: ea37 c53b bf85 453d fe45 bd3c 2e72 18bc
00000130: a740 ab3c 8a5a a43d 9ab7 693d ec4f 613d
00000140: f598 6cbd 4250 3d3c 807e 493d 69af 843d
00000150: f9ba d63c 89b0 98bd 659a 4abd cc95 ecbb
00000160: 98a3 86bd 3c0f 09bc dd27 0fbc 3ea5 8cbd
00000170: 3622 d23c ee6f d33d e972 53bc e6ab 4c3c
00000180: ff1d 7abd 807e ff3c 06e0 7cbd b3cb b0bc
00000190: 17c3 34bd 8103 8ebd 3ffe 413b 8cab 43bd
000001a0: 00a0 1d3d 3bfd a53d 6fcc 80bd 9f7b d2bc
000001b0: 3956 c13c 5888 bc3b 2eb5 84bc 6095 acbd
000001c0: 80e0 80bd 8f02 31bd f54e 89bc 26b9 4d3d
000001d0: 89d8 32bd 8670 af3d 2100 43bb 903f 2ab9
000001e0: 5ef3 4b3c 1471 783d 4bc4 303d dafe 4ebb
000001f0: e8b1 a5bd ee50 743d 24b2 83bc 0865 6dbd
00000200: 8a30 50bd 0d65 dcbc 8645 b63c c01c 91bc
00000210: 5e2a 8f3d fa54 9cbd e174 f83b 29d2 523d
00000220: de70 b53d 9472 3cbb d56b 88bd ce65 28bc
00000230: 9d54 9d3d d012 9ebc 4bc2 73bc 56e0 9cbd
00000240: 2ab1 6b3d 7cf9 e53b 0be7 e33c e0e9 a6bd
00000250: 4665 c0bc 9e8f 133c 94a9 bb3c b1a8 e8bc
00000260: 7fbe 663d 376c f43c 75e5 283d fa7e ba3b
00000270: 96cc c83c b7e7 8abd 365d 3f3c c340 a03d
00000280: f6d3 cd3d c203 ac3c a255 853c 94e0 883c
00000290: a929 a1bd 7c5d 8bbd 0e65 233d e905 58bd
000002a0: 1873 653d efc2 3b3c d23a 983d 839c 783d
000002b0: 5c26 0abd 3cfa b23c ae79 76bb 8180 033d
000002c0: eb08 613d 4f0c ba3d 26ac 873d 5eaa 71bb
000002d0: 085c 873d 96c1 d2bb 8c0e 48bd afbf a3bd
000002e0: 4ff8 7cbd 424b 563d 9689 8c3d 209c ccba
000002f0: 714f 703d 3bd9 6f3d 9c44 3e3d 60f4 0a3d
00000300: e946 04bd 88a9 79ba eaac 3c3c dafa 9cbc
00000310: e08c b83d babf 313b 363d a5bd 5557 93bc
00000320: 868a 9c3d e828 e9bb 2260 8ebd e841 8bbd
00000330: 707d 153a 5806 103d 885c 2fbb 7111 da3b
00000340: ac3a 543b 54f6 68bc 6699 423d 083a 483d
00000350: 4c77 9abc 6ead b6bd b71d 4abd d229 91bd
00000360: daed 163c 0c67 3f3d 482c cd3c 23e2 cebc
00000370: b41b a8bd dfac 453d dffa 53bc 4ecb 8e3d
00000380: 6ac9 14bd 0648 513d 26d2 6cbd 3757 153d
00000390: 7035 273d 9b63 693d 633a 34bd 08c4 893d
000003a0: 18b0 b73b 0288 c2bc 4e47 42bb af4c 533d
000003b0: 445a 073d c164 25bd 81ff 62bd c666 7dbd
000003c0: 24ef a8bd 61f4 cabd 53a9 c8bb ad18 a0bd
000003d0: aad3 58bd 5d74 babd 84b5 ab3d 33bd 17bd
000003e0: 668d 973d 613c 2f3d 898b 06bd 6ae2 22bd
000003f0: 5cc5 193d 3085 a8bd cb79 c43c a06c b63d
-0.061691046 -0.030762393 -0.0073734317 -0.06022063 -0.07434763 0.008798359 0.0762802 0.049723953
-0.1028261 0.010910402 -0.04651578 0.05139402 -0.064717725 -0.03200351 -0.08564293 0.02252767
0.009146641 0.05255781 0.030011863 -0.02843927 0.0012738784 0.0476773 0.074683145 0.06101502
-0.047509506 -0.051380217 -0.10078105 0.008903488 0.03015163 0.035776522 0.021481274 0.04014557
0.028923748 0.09403898 0.04008892 0.114954084 0.03682889 0.02919039 0.08085228 0.09836883
-0.06530971 -0.08733581 -0.08751276 -0.06366557 0.027992688 -0.076036595 0.013382835 0.07325935
0.055015057 -0.07592037 0.05443875 -0.072876625 -0.09512417 -0.03745473 -0.019181844 -0.003116223
-0.0019367882 0.057969484 -0.07910141 -0.021762276 -0.011527648 0.058119845 0.09720198 -0.07325508
-0.08837434 -0.01033264 -0.07356913 0.06443075 0.10365401 0.031813562 -0.026744522 -0.022149816
0.0060186284 0.048223253 0.023104664 -0.009304566 0.020904852 0.080250815 0.05705986 0.05500786
-0.05776306 0.0115547795 0.049192905 0.06478769 0.026212202 -0.074555464 -0.04946365 -0.0072200056
-0.06574172 -0.008365449 -0.0087375315 -0.06867455 0.025651079 0.10324083 -0.012905815 0.012492156
-0.061063763 0.03118825 -0.061737083 -0.021581506 -0.044131365 -0.06934262 0.0029601005 -0.04777102
0.038482666 0.081049405 -0.062889926 -0.025693713 0.023600684 0.005753558 -0.016199674 -0.084269285
-0.0629282 -0.04321533 -0.016761282 0.0502254 -0.043663535 0.08566384 -0.0029754716 -0.00016236142
0.01244816 0.060654715 0.04315595 -0.003158501 -0.080905735 0.059647493 -0.016076155 -0.05795768
-0.05082754 -0.026903654 0.022249948 -0.017713904 0.06990503 -0.076333955 0.0075822924 0.051469956
0.08859418 -0.0028754817 -0.06661192 -0.010278178 0.07682154 -0.01929608 -0.014877866 -0.07659976
0.057542004 0.0070182662 0.02782013 -0.08150077 -0.023485791 0.009006409 0.02290801 -0.02840075
0.056334015 0.029836757 0.041234452 0.0056914063 0.024511617 -0.06782477 0.011679938 0.07824852
0.10050194 0.020997886 0.016276184 0.01670865 -0.07869274 -0.0680494 0.039891295 -0.05274001
0.056017965 0.01146005 0.07433094 0.060696136 -0.03372799 0.021847837 -0.0037609148 0.032104973
0.054940145 0.09084379 0.066246316 -0.0036875228 0.066093504 -0.0064317686 -0.048841998 -0.07995545
-0.061760243 0.052317865 0.0686218 -0.0015610494 0.05866951 0.058556776 0.04645215 0.03392446
-0.032294188 -0.00095238583 0.011515835 -0.019162584 0.09011245 0.0027122335 -0.08068316 -0.01798598
0.07643609 -0.007115472 -0.0695193 -0.0679968 0.00057025906 0.0351623 -0.0026758034 0.006654911
0.0032383604 -0.014218885 0.047509573 0.048883468 -0.018855713 -0.08919798 -0.049344745 -0.07088055
0.009211982 0.046729133 0.025045529 -0.025254315 -0.08208409 0.048260566 -0.01293823 0.06972371
-0.036324896 0.051094078 -0.0578176 0.036460128 0.040822446 0.056979757 -0.044000994 0.06726843
0.005605709 -0.023746494 -0.0029644552 0.051586803 0.03304507 -0.04037929 -0.05541945 -0.06186559
-0.082487375 -0.09909893 -0.0061237006 -0.078172065 -0.052936234 -0.09104226 0.08384231 -0.03704567
0.074000165 0.04278219 -0.032847915 -0.039766707 0.037541732 -0.082285285 0.023983857 0.08907437

lstm.weight_hh_l0 f4 [512, 128]
00000000: 1f06 df3c 1299 ba3d f6e0 9e3d 4150 13bd
00000010: 0bc9 babd a57a f1bc 5b7a 6e3d 0026 32bd
00000020: 24cd 8cbd 70e1 1cbc 46cb 17bd 6594 c6bc
00000030: b98d 16bd 8bb2 753c 9217 853d 9a40 b03c
00000040: 4171 26bd 1d38 d23c ffc2 863b f9b5 1b3d
00000050: 4c74 723d 7084 13bd 962c 92bd 0f72 b73d
00000060: 84a6 acbd 4a87 823d 4fdb 483d 23e8 91bd
00000070: 62f9 76bc fcc3 1a3d b68e d33d 73bf 9e3c
00000080: 5a8e 173d e21c 7b3d 31d8 9f3d 9952 c3bd
00000090: 9554 37bd 0d22 8d3d 2253 ca3c ade5 40bd
000000a0: c0b0 6bbd bf50 863d ca98 05bd 4cb3 4ebc
000000b0: 6fcb 2e3d e9f5 a2bd 9eb8 3c3d cefb a2bd
000000c0: 6adb 3cbd 9055 99bd e9dd af3d 2ff1 013d
000000d0: ab72 683d fafd d9bc 057b 6abd 8528 9b3d
000000e0: cfb2 8ebd d100 483d 7d89 93bd c46d c33d
000000f0: 8b53 9e3d e6a6 71bd cbc2 34bd 2e44 a8bd
00000100: ed53 6d3d 5eac f1bb 56af 96bc 13f8 86bd
00000110: d4d5 01bd 3a18 53bd 32d1 2a3c c34f 36bc
00000120: 7a66 32bd 1f59 c33d b0e3 55bd 762c 963d
00000130: 04e0 1ebd 5ec9 e23c d0f9 763d f735 8b3d
00000140: 80f1 afbd 07c4 a1bd 1500 d3bd 552c 96bd
00000150: defa 8c3d 5285 ccbc 229f 803d 4c69 123d
00000160: b99b c73d 0860 31bd 20c2 ee3c b1cb 393d
00000170: 2597 d2bb 0fcc 5e3c 0d15 a33d ff06 58bd
00000180: c3f7 af3d 3eaf e03b 40ac b0bd 9305 96bd
00000190: 1b16 99bd 0d28 97ba 484e 55bd dc53 85bd
000001a0: 7e3c 85bd 58be 66bd 544e 0ebd 50e8 12bd
000001b0: 7faa b43d a2ac a3bd 8032 303d 38f1 a7bd
000001c0: c809 b73c 6b08 04bd f163 20bd 97cc 933d
000001d0: 4468 aabc caaf b8bc 76ea 773d 36fb 61bd
000001e0: 0086 95bc a1b7 24bb 2834 253d 0bfb bfbd
000001f0: a6bb 913d 72bc 623c a6e1 933d 064d 6fbd
00000200: 8093 c9bb cd20 7a3d 169a db3c 460a 4abc
00000210: 869e 14bd 182c 6dbb ece7 a7bd 2190 12bd
00000220: b366 9abd dade e3bd 8fe8 9ebd 4c40 783c
00000230: 7e2f 873d f4cb 8fbd 569f 9f3c 4a2e 33bd
00000240: 0d99 35bd f7e6 c6bc 881a 9b3a cc8e 24bd
00000250: 14df 31bc 3df1 a4bd a10a 1cbd bde7 153d
00000260: 3409 613c 98fa 8abb 347a 4fbb 28cd 13bd
00000270: 50f9 9bbd 1abd a2bd a289 a2bc e58a 3e3d
00000280: ef78 81bd d208 a1bd e6ff 29bd 1eeb 7f3d
00000290: 1a7a 11bd 5dc3 83bd e84e 45bc 7155 36bd
000002a0: 1c65 343d 38fc e13b b6d5 a23d b811 2b3a
000002b0: 6938 34bd c0fc cebd b76f 10bd 1b76 84bd
000002c0: a069 8d3d 6279 773c 6ba4 cfbd 650a d53d
000002d0: 1e45 68bd 24d0 143d 9d37 8c3d 5b48 943d
000002e0: 36fe 92bd 77b1 323d bc55 cbbd fb1f 97bd
000002f0: b39e 1e3d f08a 203d 4d55 b5bd 9e7f b33d
00000300: 1445 1ebd bf99 8e3d 571a 7c3d 1834 9f3d
00000310: b817 5bbd 6d00 b7bd 41e2 be3d 2b55 42bd
00000320: fbed 40bc 21a2 9cbd 98ac 8e3b 7204 8e3d
00000330: b7c2 b73b 900b ae3d f359 55bd 38d0 55bd
00000340: 90be c73d 4f8d a7bc 4cdc e0ba c071 02bd
00000350: aa94 3e3d c5e6 af3d e61f febc e329 973d
00000360: e366 3b3c f024 b83d bc79 68bd a9c8 7f3d
00000370: 9efe 433c 6a8a 4ebd e3e3 0abd 4f30 963d
00000380: 6de2 df3c ad03 71bc 73cf abbb f038 3e3c
00000390: 55e1 91bd 4c3b c23c 0f56 9abc f69d 413c
000003a0: f9da d3bb 35d0 4ebc b1a7 2ebd 886c 2f3c
000003b0: bc13 9f3c c428 a5bc 589f bf3c 50d0 8fbb
000003c0: 3df9 7e3d 8c3b 09bd ca20 863d dea5 fb3c
000003d0: 527d 213d 3ab8 31bd b92c a6bd eca9 75bc
000003e0: a44e 813d 1c2f 6a3d a447 683c ea15 88bc
000003f0: 6de7 7cbc 61c4 42bd 1479 96bd 7d6e b7bc
0.027224598 0.09111227 0.07757752 -0.035965208 -0.09120377 -0.029477427 0.058222156 -0.04349327
-0.06875065 -0.009575233 -0.03705909 -0.024240682 -0.03675625 0.014996181 0.06498636 0.02151518
-0.04063535 0.025661523 0.004112601 0.03801534 0.05919294 -0.036014974 -0.0713741 0.08957302
-0.08430198 0.063734606 0.049037274 -0.07124355 -0.015074106 0.03778456 0.10329954 0.0193784
0.03700099 0.06130684 0.07804907 -0.09537239 -0.044758398 0.0689126 0.024697844 -0.047094036
-0.05754161 0.0655837 -0.032616414 -0.01261599 0.04267448 -0.0795706 0.046074502 -0.07958184
-0.046107687 -0.07487023 0.08587248 0.03172415 0.05674998 -0.026610363 -0.057246227 0.07576088
-0.06967699 0.048828904 -0.07203958 0.095424205 0.07730778 -0.058997057 -0.04413108 -0.08216129
0.057941366 -0.007375284 -0.018394154 -0.06590285 -0.031698063 -0.051536776 0.010425853 -0.011127415
-0.04355476 0.09538483 -0.052219093 0.07332699 -0.038787857 0.02768391 0.060296834 0.06797402
-0.08590984 -0.078987174 -0.1030275 -0.073326744 0.068837866 -0.024965916 0.06280352 0.03574495
0.097464986 -0.043304473 0.0291453 0.04536027 -0.0064267092 0.013598456 0.079629995 -0.052741047
0.08592179 0.006856828 -0.08626604 -0.07325282 -0.074749194 -0.0011532322 -0.052076608 -0.065101355
-0.065056786 -0.05633387 -0.03474267 -0.03586608 0.08821582 -0.079919115 0.04301691 -0.08200306
0.022343531 -0.03223459 -0.03915781 0.07216757 -0.02080167 -0.02254476 0.060526334 -0.055171214
-0.018252373 -0.0025133865 0.040332943 -0.093740545 0.07115869 0.013838874 0.072207734 -0.058423065
-0.0061516166 0.061066438 0.026806872 -0.012331551 -0.036283992 -0.0036189612 -0.081985325 -0.035781983
-0.075391196 -0.1112649 -0.07759201 0.015152048 0.06600855 -0.07021323 0.019485157 -0.043745317
-0.044335414 -0.024280054 0.0011833468 -0.040175244 -0.010856409 -0.08053825 -0.038096074 0.036597956
0.013735104 -0.004241299 -0.0031658532 -0.036084324 -0.07615912 -0.079462245 -0.019841019 0.04651918
-0.063218944 -0.078630105 -0.04150381 0.062480085 -0.035516836 -0.06433747 -0.0120427385 -0.044515077
0.044041738 0.006896522 0.079509184 0.00065257726 -0.04399911 -0.10106802 -0.03526279 -0.06467839
0.06904912 0.0151046235 -0.10138782 0.10402373 -0.05670654 0.03633131 0.06846545 0.07240363
-0.07177393 0.043626275 -0.09928462 -0.07379147 0.038725566 0.039195 -0.088541605 0.087645754
-0.038640097 0.069629185 0.061548557 0.07773608 -0.053489417 -0.08935628 0.09320498 -0.047444504
-0.011775489 -0.07648111 0.004354071 0.069344416 0.0056079286 0.08498299 -0.052087735 -0.052200526
0.09753144 -0.020453123 -0.0017155497 -0.03184676 0.046528496 0.08588938 -0.03102107 0.07381036
0.011438104 0.0899142 -0.05675672 0.062447224 0.011962561 -0.05042497 -0.033908736 0.07333433
0.027329648 -0.014710349 -0.0052432357 0.011610255 -0.07123057 0.023709916 -0.018839864 0.011817446
-0.0064653126 -0.012622883 -0.04264039 0.010707028 0.01941859 -0.02016104 0.02339141 -0.0043888465
0.06224941 -0.033504054 0.06549223 0.03071874 0.039426155 -0.043388583 -0.08113999 -0.014994126
0.06313828 0.057173833 0.014177237 -0.016612012 -0.015436036 -0.047550563 -0.073473126 -0.022391552

lstm.bias_ih_l0 f4 [512]
00000000: 1307 5abd efa6 cfbd 70e4 dcbc f385 113d
00000010: aa98 743c e18c 8abd 3de3 0abd c937 9c3d
00000020: 58e1 4fbd 872e 8c3d cb64 c9bd 9757 48bd
00000030: 204b cdbd 99bf e5bc 6657 a03c 1807 0fba
00000040: 0c69 703d 6232 d83c 626e a03d f4d3 98bd
00000050: 728d 443c 6433 4f3d c760 8cbd 57a9 133d
00000060: cad8 b2bc baac fcbc 3e33 c7bc cac9 b33d
00000070: ffb2 893d 3c6d 44bd 5c46 983d a7b6 903d
00000080: d7c1 c03d 7117 143c cdd6 2a3d 1429 5dbd
00000090: 65e4 18bd db66 99bd 8a02 40bb 2090 d9b9
000000a0: ca0e 18bd a512 cdbc 9c42 f4bc 4a36 7b3c
000000b0: 12bf ec3b 7f10 873c 9a3b 6bbb 1724 cebc
000000c0: 5850 6dbd 5084 db3b 25cb 95bd b30b 4d3d
000000d0: 4385 fbbc b3c1 f33c 1c0e bd3d 94d8 4c3c
000000e0: 8c14 0ebd 12b4 013d 77ca 59bd 612c 75bd
000000f0: c48e d13a 50bf 3b3c aa39 133d 5f7a 813c
00000100: 6c99 1bba 560c 823d 6dfa c4bd 6899 123d
00000110: e64e 103c 1c70 d63c 31a9 27bd aa1c c03c
00000120: 8b3d 33bd 0e62 65bc 2dd1 b2bd b0bd fa3a
00000130: 49e2 70bd 571d dabc 588b 08bd aae7 b7bd
00000140: 47ad b73d 14bb 4ebc 149f 01bd 41de bb3d
00000150: d43b 91bd bdf4 20bd 6245 873d f8fa f53a
00000160: 5bc4 a0bd acdb ae3c 65b8 903d 8577 223d
00000170: a9e4 d4bb eb6a 5fbd da54 c2bc 64d4 733d
00000180: 1046 1f3a d388 9bbd c3db e8bc 24ee adbd
00000190: 2b79 173c 4f3a f93c 1e21 193d 991b eb3c
000001a0: 9d47 ca3d a349 f4bb 1921 61bd 1864 a3bb
000001b0: 84ca c6bb 135a 9fbb 788e f73c 0b21 7e3d
000001c0: 92a3 80bc 0988 84bb 9207 4f3d 180a c2bd
000001d0: 021c 233d 8634 1b3c 88c2 87bc c9f1 6fbb
000001e0: 4870 3b3d 9e25 61bc cf50 8c3d ca31 7ebd
000001f0: 61c2 a53c 2035 58ba 277f 8a3d 9e02 efbc
00000200: 4a26 8d3d 0de1 4f3d b0f1 6f3d bf07 c23d
00000210: b14d c33d e4e6 a83d b0d1 0dbb a664 4c3d
00000220: aa81 573d 9eb0 0cbb fcd7 88bd 72a0 5cbd
00000230: 5c9e ebbc c417 383d 41e2 673d d28a af3d
00000240: 1b20 3a3d bfc8 d6bd 1127 4cbd 8dd7 243c
00000250: cdb2 d3bc 509a a2bd 166d c23c 3076 b03d
00000260: 3b02 52bc 49fa 8ebd 9b19 833d 70f0 12bd
00000270: 0cb9 33bc d36e 8dbd 25e7 41bd 916f 5cbd
00000280: 4eab ffbb 9eed 333c 5696 5d3d db11 18bd
00000290: 30ae 273d 3ce8 2bbd 6996 a73d 441b afbc
000002a0: 8757 dabc 3121 4b3c 7a67 c23d 38a0 6c3d
000002b0: 4083 a03d 15e4 8c3d 8222 5dbd 1539 55bd
000002c0: 448c 7abd b103 d93b 4e7e 783d 5846 d83c
000002d0: 0bf4 ec3c aca6 89bd 2948 65bd 2f6c 493d
000002e0: 4273 d9bc 5034 623d 2350 0bbd 5d1b 0abd
000002f0: 0a18 65bc ad94 52bd 7495 16bd 29e6 23bd
00000300: 1a46 e6bc ea10 ba3c ada6 8f3d 5a61 84bd
00000310: e7d7 343d 64fa a43d 84fa 823b 0b39 cfbd
00000320: ec09 d5bd 2c06 443b 6381 653d 24c3 81bc
00000330: 3d9b 35bd af34 ab3b 843b 333d 050c d3bd
00000340: ff99 893d b1e9 9c3d 8119 a33c c846 df3b
00000350: b712 fa3c f35d 703d 15b7 a4bd 12de 06bd
00000360: a9e5 f1bc c6f7 683c 4053 853d 0663 8f3b
00000370: d33e 1cbd 4891 ed3c 44b9 723d 76fc fbbb
00000380: cc83 8e3c 5730 05bd 9810 143d 93c3 bebd
00000390: cc07 903d 2135 893d 0bdf b2bd 2da7 3abd
000003a0: 4431 da3c aa55 a1bc 6510 14bd 1e2d 98bd
000003b0: 1c78 c5ba a393 f03c aae9 973d 224b 883c
000003c0: d6c2 f0bc 7207 44bd fc2e 4c3d b744 aebd
000003d0: 1d0b 89bd e3a0 0dbd dc35 a2bd d2a3 033d
000003e0: 4e96 123d f02c 98bd f551 88bc 8822 ea3a
000003f0: 9e85 dc3c 7c4b 9bbd dbd0 99bd 3d0e d6bd
-0.053229403 -0.10139262 -0.026964396 0.035528135 0.014928976 -0.06765152 -0.033908118 0.07627828
-0.050752014 0.06844812 -0.09833678 -0.048911657 -0.100240946 -0.028045462 0.019572925 -0.0005456074
0.05869393 0.026391212 0.07833554 -0.07462302 0.011996614 0.05058612 -0.06854396 0.036050167
-0.021831889 -0.030844081 -0.024316426 0.087787226 0.06723594 -0.047955737 0.07435295 0.07066088
0.09411972 0.009038792 0.041708756 -0.053994253 -0.03732719 -0.07490321 -0.0029298388 -0.00041496847
-0.03712348 -0.025033304 -0.029816918 0.015332768 0.007224926 0.016487358 -0.003589368 -0.025163693
-0.05793795 0.0066991225 -0.07314137 0.050059985 -0.030703193 0.029755449 0.09231207 0.012502808
-0.034687564 0.03166587 -0.0531716 -0.059856776 0.0015987982 0.011459187 0.035943665 0.015805421
-0.00059356424 0.06350009 -0.096180774 0.03579083 0.008807873 0.026176505 -0.040932838 0.023451168
-0.043759864 -0.014000429 -0.08731303 0.0019130018 -0.058809552 -0.026625318 -0.033336014 -0.08979733
0.08968597 -0.012617845 -0.03164585 0.09173251 -0.070914894 -0.0392959 0.066050306 0.0018766811
-0.07849952 0.021344982 0.070664205 0.039664764 -0.006496985 -0.054545324 -0.023722101 0.059528723
0.0006075809 -0.075944565 -0.028425103 -0.08492687 0.009245197 0.030423312 0.0373851 0.028699683
0.098769404 -0.0074550672 -0.054963205 -0.0049862973 -0.006066622 -0.0048630326 0.030219302 0.06204323
-0.015702996 -0.004044537 0.05054433 -0.094745815 0.039821632 0.009472972 -0.016572252 -0.003661262
0.045761377 -0.013741879 0.068513505 -0.0620592 0.020234289 -0.00082476623 0.06762534 -0.029176053
0.06892069 0.050751735 0.0585801 0.09474134 0.09536303 0.08247164 -0.0021639876 0.049900673
0.05261389 -0.0021467577 -0.06681821 -0.05386395 -0.028762035 0.04494454 0.056612257 0.085714
0.045440774 -0.10487508 -0.049841944 0.010061157 -0.025842095 -0.07939589 0.023733657 0.086162925
-0.012817915 -0.06981332 0.06401368 -0.03587383 -0.010969412 -0.06905904 -0.047339577 -0.053817336
-0.0078024035 0.010981945 0.05409845 -0.037126403 0.040937603 -0.041969523 0.08182985 -0.021375306
-0.026653064 0.01239805 0.09492393 0.057769984 0.07837534 0.06879441 -0.053987987 -0.05205639
-0.061168924 0.0066227545 0.06066733 0.02640073 0.028924963 -0.06721243 -0.05597702 0.049175438
-0.026544217 0.05522567 -0.03401197 -0.033717502 -0.013982782 -0.05141132 -0.036763623 -0.04001442
-0.028109599 0.022713143 0.07014213 -0.06463881 0.044151213 0.08055571 0.003997149 -0.10118302
-0.10402283 0.0029910905 0.056031596 -0.01584012 -0.0443375 0.0052247862 0.04375793 -0.10305027
0.067188255 0.076617606 0.019909622 0.0068138577 0.030526502 0.058683347 -0.080427326 -0.032926627
-0.029528456 0.01421923 0.06510019 0.004375818 -0.03814585 0.02899994 0.059258714 -0.007690008
0.01739683 -0.032516804 0.036148638 -0.093146466 0.07032737 0.06699587 -0.08733948 -0.045569587
0.02663482 -0.019694168 -0.036148448 -0.074304804 -0.0015065703 0.029367274 0.07417615 0.016637389
-0.02938978 -0.047858663 0.049849495 -0.085092 -0.06691573 -0.03457726 -0.07920429 0.032138653
0.035787873 -0.07430446 -0.016640643 0.0017863074 0.026919182 -0.07582757 -0.07510539 -0.104519345

lstm.bias_hh_l0 f4 [512]
00000000: 0a83 93bd a4bd 5d3c 4036 9cbc dee9 093d
00000010: 0a17 223c 14c0 b9bd 7bac 633d 65fb 19bd
00000020: 3c61 52bd acbc b03c ea20 89bc 853a 903d
00000030: 4a5a 39bd 3086 483d cfe8 c2bc 2cd8 40bd
00000040: 36c2 613b 6ab9 f93c 3090 f3bc e2e7 9c3d
00000050: 10fd 4cbd 4423 a03d ab14 a9bd 8a31 13bb
00000060: 0495 f3bb c72c 9dbd 1294 f9bb a8f2 823c
00000070: 80db 4c3d 4853 9cbc 8b98 673d 7525 4c3d
00000080: 0d0b 2c3d 95a2 80bc 6da3 6bbd 8d7b ddbd
00000090: 3458 323d 9693 44bd 274a 84bc edba 21bd
000000a0: a006 15bc 4d54 cdbd a13a 843d 9809 79bd
000000b0: 0fcc e53c 5be7 d43d fc89 a1bd e4e6 543c
000000c0: b84f cfbc 9063 9f3c 02fe 17bd 70c7 f23c
000000d0: 2ced bb3d d055 5cbd eec3 af3d dc9d b53d
000000e0: 8904 653d 6f50 aebd 71e4 d33d e6e8 dfbc
000000f0: dbde 8f3d 86ac 4b3d 47f1 85bd 8208 8dbd
00000100: 305d 29bd 0c0c 953d 97bf f8bc ad68 7e3d
00000110: 23a0 9cbd cea8 31bd 6b05 f4bc 61a7 083d
00000120: 08b6 49ba d669 ef3b b442 8f3d 2357 9ebd
00000130: aabc 84bd d9ef 9fbd d07f cb3c 6f3b 943d
00000140: 64e7 4cbd a127 9dbd 06ce 2d3d 63a0 29bd
00000150: a0a7 dfbc 20d1 74bd 9ea0 e13c 31c3 9cbd
00000160: b6bc bebd 87a0 173d 6035 513c c2f8 9ebd
00000170: eecb 4b3d f28d 07bc 498e 28bd 10fb 2fbd
00000180: 8f92 cd3d 00a1 a0b9 860f 46bd 721f 8b3d
00000190: 8242 103c 876d 3ebd 6f5a 50bd d272 003d
000001a0: 0d89 3c3c f47c 52bd 5214 98bb ebc2 7f3c
000001b0: 7ae8 32bb 8361 93bd 6bb4 2b3c 19ed 323d
000001c0: f141 423c 5cca 803c 9936 243d 70a1 573a
000001d0: be89 7d3d de7a 8dbd b37e 843d 16d9 8abd
000001e0: c4db 8e3b a84c aa3d 6a79 783d 0ee3 4fbd
000001f0: d91b b43c 1226 0dbd a451 35bd adb4 e83b
00000200: 356e 963c 7a38 cabc 813a f73b 7d79 873d
00000210: 454a b93d e958 adbd 524b 82bd d3cb bfbd
00000220: 5c8e 8cbd dd51 2e3d bd89 9cbd 0d68 8dbc
00000230: 7eba c0bc 76b1 1f3d 4ca6 c23c 8adb 63bd
00000240: 8698 92bd 3fbe 9b3c 9201 b9bd 263b 7fbd
00000250: 4c02 72bc a8e1 7f3d 6a9d 41bd e3b2 0abd
00000260: 9e2f 67bc 54b5 87bd 35b5 31bd 614b 59bd
00000270: 4039 b539 a9f3 db3b 12d3 41bd 4aab e6bc
00000280: ba9c 5d3c f69e 40bd b26b 89bd 66df 5ebd
00000290: a71c 49bd d06e abbd 71b1 bf3d a694 06bc
000002a0: acb8 873d ab82 80bd 0017 eebc 4041 27bd
000002b0: 0cea 37bd 7d8a f23c a25e 083d e03e 58bd
000002c0: 6162 e93c 871f d33c 24ca 213c 67ce 32bc
000002d0: b34f 8d3d f9dd ff3c 5ec8 39bd ba10 95bd
000002e0: a900 68bb a912 8a3d 20e3 05bc 525f 75bd
000002f0: 9657 803c 61ed 5fbc 68d9 a93b 9df3 afbd
00000300: 4d99 3dbd 5a31 7ebd 8438 cdbc f00b a6b9
00000310: 2f9f a0bd d2b3 803d a49e 5f3d 6a5c 0dbd
00000320: 5e3c d1bc 29ed 973d cf5b 9fbd 0072 27bd
00000330: 1311 e93c fb8e 2f3c 9071 d63d 05b8 9bbd
00000340: e9a9 983d 65ba 3abd e0d8 47bd 2b26 6abd
00000350: abc8 3fbc 4930 983d 66be 023d 1c23 373d
00000360: d815 513d de13 653d 999a b33d 6bb7 a33c
00000370: 7f24 1a3d 1641 5e3d ff76 893d 3c94 53bd
00000380: 0514 e3bb 9072 6cbb 0c62 11bd 5066 993d
00000390: 83ad 9d3c 0048 a6bd d8c8 b5bd 5bbb ce3c
000003a0: ce4f f73c 46a4 043d 45c3 75bd 56dd 31bd
000003b0: d04f 31bd 7a3b 663d 7904 abbd 82cd a53c
000003c0: 87f3 a53d b1a3 df3c f888 83bd 28df 8a3d
000003d0: 609f 32bd 3962 df3b efd8 0abd cd1e 903d
000003e0: 2f9e 3fbb 60b5 3b3d 026f a2bd 0aa8 a3bd
000003f0: 52a5 37bd 1030 103d 1904 93bd 1529 c2bd
-0.07202728 0.013533983 -0.019068837 0.0336703 0.009893188 -0.09069839 0.055584412 -0.037593264
-0.05136226 0.02157434 -0.016739327 0.07042412 -0.045252122 0.048956096 -0.023792652 -0.047081158
0.0034448034 0.03048392 -0.02973184 0.07661416 -0.050046027 0.078192264 -0.08255895 -0.0022459948
-0.0074335355 -0.07674556 -0.0076165283 0.015984848 0.05001402 -0.01908268 0.05654196 0.04984041
0.042002726 -0.015702525 -0.0575289 -0.10814581 0.04354115 -0.04799231 -0.01614864 -0.039484907
-0.009095818 -0.10025845 0.06456495 -0.060800165 0.028051404 0.1039569 -0.078876466 0.012994502
-0.025306568 0.019456655 -0.037107475 0.029636115 0.09176096 -0.053792775 0.085822925 0.08868
0.05591253 -0.08511435 0.10346306 -0.027332734 0.07024928 0.049725078 -0.065401606 -0.06886388
-0.041348636 0.072776884 -0.030364795 0.062111545 -0.07647731 -0.043373875 -0.02978774 0.03336275
-0.0007694666 0.007306318 0.069951445 -0.07731464 -0.06481297 -0.07809419 0.02484122 0.072378986
-0.05002536 -0.07673574 0.042432807 -0.041412722 -0.02730161 -0.05976975 0.027542409 -0.07654417
-0.093133375 0.037018325 0.012769073 -0.077622905 0.04975503 -0.0082735885 -0.04115132 -0.04296404
0.100377195 -0.00030637532 -0.048354648 0.06793107 0.008804919 -0.046491172 -0.050867494 0.0313595
0.011507285 -0.051388696 -0.0046410942 0.015610437 -0.0027299211 -0.07196333 0.010480027 0.043683145
0.011856542 0.015721492 0.04009113 0.0008225655 0.06189894 -0.06908201 0.064694785 -0.06779687
0.004359694 0.08315402 0.060662664 -0.050753646 0.021985935 -0.034460135 -0.04426731 0.0071016164
0.018363098 -0.024685133 0.007544816 0.06614969 0.09047369 -0.08464224 -0.063620225 -0.09365048
-0.068630904 0.04255854 -0.07643459 -0.01726153 -0.023526426 0.0389876 0.023760937 -0.05562929
-0.07157998 0.019011615 -0.09033503 -0.062312268 -0.014771055 0.062471062 -0.047269262 -0.033862006
-0.014110474 -0.066263825 -0.043385703 -0.053050403 0.00034565665 0.006712396 -0.047320433 -0.028157849
0.013526136 -0.047026597 -0.067099944 -0.054412268 -0.04909959 -0.08370745 0.09360016 -0.0082141515
0.0662702 -0.06274923 -0.029063702 -0.04083371 -0.04490094 0.029607052 0.033293374 -0.052794337
0.028489294 0.02577187 0.009874854 -0.010913468 0.06899967 0.031233774 -0.0453571 -0.07278581
-0.0035400784 0.067418404 -0.008171827 -0.059905358 0.015666764 -0.013667435 0.0051833875 -0.085913874
-0.046288777 -0.062058784 -0.025051363 -0.0003167088 -0.07842862 0.06284298 0.05459465 -0.03451196
-0.02554148 0.074182816 -0.07781183 -0.040880203 0.028450524 0.010715242 0.10470879 -0.07603458
0.07454283 -0.045587916 -0.048790812 -0.057165306 -0.011705558 0.07431085 0.03191986 0.044711217
0.051046222 0.05592715 0.087697215 0.019984921 0.03763246 0.05426129 0.0671215 -0.05165504
-0.0069298767 -0.0036079027 -0.035493895 0.07490218 0.019247776 -0.08119202 -0.088761985 0.025235822
0.030189421 0.032383226 -0.060000677 -0.043423973 -0.043289006 0.056209065 -0.083504625 0.020239595
0.0810309 0.027299734 -0.06422609 0.06780845 -0.043609023 0.006817129 -0.03389829 0.07037125
-0.0029238572 0.04582727 -0.07931329 -0.07991035 -0.044835396 0.035202086 -0.07178516 -0.09480492

fc.0.weight f4 [256, 128]
00000000: d4d5 4bbd b0e1 0d3d 8215 73bd 8923 fd3c
00000010: c46e 473d 1cd2 29bd b7e8 0bbd 4bab ddbd
00000020: 6ffa 803d 6a8d 9fbd 24aa ae3c dd69 163d
00000030: 996a 683d 9184 573d a271 793d 8da3 babd
00000040: ff41 e03d d6bd 873c 9eae 883d 2fe0 b2bc
00000050: 928b 4f3d 78c4 9a3d bb2d d53d e201 6d3d
00000060: 81ca 2ebd 7e9f c0bd 01b2 afbc f2b6 183d
00000070: 03eb 8abd cb72 003d 9461 a1bc ace4 8d3d
00000080: 1088 943d 02ba 4bbd bdaf a4bd 1070 55bd
00000090: f9c6 563d 84dc bdbd 3962 8dbd f5be 9c3d
000000a0: daa4 923c 0f7e 3a3d b2cb 62bd 16de 3b3d
000000b0: ebd4 5c3d e827 6ebd 72a8 683d b1ac 48bd
000000c0: e9d7 9b3b 2c87 54bd 67c9 92bd 01b5 543d
000000d0: 3a02 55bd 5911 bf3c 93f9 bcbd c451 9dbd
000000e0: d0ed 883d 0e6a 923d b9fc 50bd fb1d 413d
000000f0: 5d84 33bd ec1f d13d 42c1 cfbc 740b 803d
00000100: 7c5b 013d 4f46 d0bc 0a14 bf3c 1cf9 44bc
00000110: f05c 763a 7e5d abbd bc5a adbc 62ea a13d
00000120: 9cf4 82bd a33f 63bd 933e 273d 6f9f b0bd
00000130: 9786 a73d 086e bfbb 87be 04bd de71 6d3d
00000140: c47b 28bd 8072 783d 2a71 30bc 0444 8ebd
00000150: 7ba6 743d 35b4 96bd 50a4 943a 9efd 4fbd
00000160: 4f4b 89bd e09d c2bb ba61 9abd d381 92bd
00000170: 7e46 8b3d d2b3 833d eac4 7b3a e082 ccbd
00000180: 7a82 0abd 63b6 a5bd 6ab6 3fbd afaa 54bd
00000190: 09a7 b3bd 6499 5abd 22c6 21bd 1a6d 2f3d
000001a0: dab1 91bd f86e f43c da6c aabd 0d30 b9bc
000001b0: 263b 393d 96b9 603d e001 93bd 1bc9 28bd
000001c0: c4a5 34bd d5e0 7f3d d5ab 9abd 5d2f 683d
000001d0: d8ab d73c a727 18bd f698 1ebd 5fe1 243d
000001e0: aef4 f33c e73c 7b3d 9c6e b2bd f844 f83c
000001f0: aec8 2fbd 31a4 d5bc 7b71 87bd 5ca1 a2bb
00000200: a017 f23a 306a ad3b 78e4 c53d 463b 673c
00000210: c29e 5a3c 01ff 103c 79da 003c 6352 babc
00000220: 2c38 d33d 8537 293d a9a5 813d fc40 4a3d
00000230: 2ea4 c53c bc56 783b 4568 77bd 0808 1a3d
00000240: 9748 9ebd 55bb 24bc 6be9 1f3d 2b8c 39bc
00000250: a943 e43c 5663 a43c 0d8c 2abd e8e2 66bd
00000260: 6e6b 31bd 94d2 b93d 2c99 523d 7a22 9e3d
00000270: 7c0e b9bd e4ce b13a a787 1ebd dfbb 323d
00000280: ab0d 033d 8113 e73b f287 0d3d 7826 d2bd
00000290: d23d 5dbc b00f 7cbd c227 af3d 718a 8c3c
000002a0: 73c1 17bd 0e8c 9dbd 8d3d 873d 8901 4abd
000002b0: 70e9 13bd ac91 203d 8168 423c 14f4 97bd
000002c0: 1832 d43c afc5 23bd 5b55 ca3c cd90 0b3d
000002d0: f2ef 48bd 3ea1 9fbd 5505 edba bfeb afbc
000002e0: 35b4 b8bd 4558 dfbc 4831 a03d 86db 2cbd
000002f0: aa8a 8fbd efb2 793d 487b a339 0401 31bd
00000300: 79e1 803d 38ba ddbc 089a 24bd e2f9 a6bd
00000310: 7cef b1bc c668 c23c 01a4 9cbb e21c b5bb
00000320: 2db6 2cbd e4ed c03c 32cd 91bc 1f8c 58bd
00000330: 5650 623d cfac ac3c 3211 553d e858 903d
00000340: 42f9 6dbc 2d0f 46bd 4b32 c73c e2ac 4cbd
00000350: cc5c 243d 3329 4fbd cfbe cf3c cedb 5dbd
00000360: 03b6 dc3b 6e9b 25bd b17b 693d 7e54 683d
00000370: b502 c03d 227e fb3c 4e9f 8e3d 5e31 933d
00000380: 98dd bf3d 7241 6cbd 2c3a acbb 7ddd a23c
00000390: 92a0 1fbd e3a1 82bb 48e1 49bb 2450 e13c
000003a0: 2d12 c1bc 6a3f babd 23b6 74bb 3bc9 c0bd
000003b0: 7d1e 983c 9742 963c ac37 683d 4a16 2a3d
000003c0: cefe b2bd 92ed cc3c b387 1d3d 3f7f 81bc
000003d0: ef5d 63bd 8410 a3bd 6e2b 973d 9ed3 d33c
000003e0: 7dd2 ac3d 957a 12bd f584 9fbc 6f26 b6bd
000003f0: 3b14 0abd 59d7 e23c 50e6 5ebb 0fe8 a43c
-0.04976447 0.03463906 -0.059346683 0.030900734 0.04868962 -0.04146014 -0.03415748 -0.10823687
0.062977664 -0.077906445 0.021321364 0.036722053 0.056742284 0.05261666 0.060899384 -0.09113226
0.10950088 0.016570013 0.066739306 -0.021835415 0.050670214 0.07557005 0.10409113 0.057863124
-0.04267359 -0.09405421 -0.021447184 0.037283845 -0.06783106 0.031359475 -0.01969985 0.06928381
0.07252514 -0.049737938 -0.08041332 -0.052108824 0.05243585 -0.09270576 -0.069035 0.0765361
0.017900873 0.045530375 -0.05537004 0.045866095 0.053913992 -0.058143526 0.056801267 -0.048992816
0.004755963 -0.051886722 -0.07167321 0.05193043 -0.052004077 0.023323702 -0.0922729 -0.07681611
0.06685984 0.071491346 -0.051022265 0.047147732 -0.043827403 0.10211167 -0.025360707 0.062521845
0.031581387 -0.02542415 0.023324985 -0.012022283 0.0009398004 -0.083674416 -0.02116143 0.07906033
-0.06394312 -0.05548061 0.04083116 -0.086241595 0.08179968 -0.005841974 -0.032408264 0.05796992
-0.041133657 0.06065607 -0.010769168 -0.06946567 0.05972908 -0.073585905 0.0011340473 -0.050778978
-0.06703817 -0.0059392303 -0.07538171 -0.07153668 0.06800555 0.064307824 0.00096042326 -0.099859
-0.03381584 -0.08091428 -0.046804823 -0.05192059 -0.08772094 -0.05336894 -0.039495595 0.042828657
-0.071140006 0.02983807 -0.08321543 -0.02260592 0.045222424 0.05486449 -0.07178092 -0.041207414
-0.0441034 0.062470276 -0.075523056 0.056685794 0.026327059 -0.03714719 -0.038720094 0.040253993
0.029779758 0.061337378 -0.08712503 0.030306324 -0.042915992 -0.02607927 -0.066134416 -0.004963083
0.0018470176 0.0052921996 0.096627176 0.014113253 0.013343515 0.00884986 0.007864588 -0.022744363
0.10313448 0.041312713 0.06330425 0.04937838 0.024126139 0.0037893495 -0.060402174 0.037605315
-0.07728689 -0.010054429 0.039040964 -0.011324923 0.027864294 0.020066898 -0.04163747 -0.05636874
-0.043315344 0.09073368 0.051415607 0.0772142 -0.09035966 0.0013565687 -0.038703587 0.0436362
0.031995457 0.0070518856 0.034553476 -0.102612436 -0.013503509 -0.0615384 0.08552505 0.017155858
-0.037049722 -0.07692729 0.06603537 -0.04931787 -0.036111295 0.039201424 0.011865736 -0.07419601
0.025902793 -0.039983448 0.024698904 0.03407364 -0.049056955 -0.077944264 -0.0018083254 -0.021474717
-0.09018747 -0.02726377 0.078219 -0.04220154 -0.0700887 0.06096166 0.00031181634 -0.04321386
0.062930055 -0.027066335 -0.04018596 -0.0815313 -0.02172064 0.0237316 -0.004780293 -0.0055271247
-0.042165924 0.023550935 -0.01779804 -0.052868005 0.055252396 0.021078495 0.05201835 0.070482075
-0.01452476 -0.048354317 0.024315974 -0.04996956 0.04012756 -0.0505764 0.02535954 -0.0541647
0.0067355647 -0.040431432 0.057002727 0.056721203 0.09375516 0.030699793 0.06963979 0.071871504
0.093684375 -0.0576796 -0.005255958 0.019881004 -0.03897149 -0.0039865836 -0.0030804444 0.027504034
-0.023568237 -0.090941265 -0.0037340007 -0.09413382 0.018569225 0.0183423 0.056693718 0.041525163
-0.087400064 0.025015626 0.03845949 -0.015807746 -0.055509504 -0.079621345 0.073813304 0.025857743
0.08438585 -0.035761435 -0.019472579 -0.088940494 -0.0337107 0.027690576 -0.0034011789 0.020130185

fc.0.bias f4 [256]
00000000: 07d6 c7bc 713d 9c3d 88fc 73bd 97f9 23bd
00000010: 4ef4 59bd 0fba 70bc d5a6 43bd fcba 93bc
00000020: 008d a3bc 238e 963d b4f2 843d d1f8 953d
00000030: 1d22 bd3b d0a1 60bb f979 093d e81d 79bd
00000040: 286d 533d 1d12 493d be5a 3b3d c89a b83c
00000050: f223 38bd a370 75bd 0263 63bc 1721 d93d
00000060: 14f3 023d 88f7 ae3d e463 d6bc 88dd 0a3d
00000070: 725d 343d 5920 233d f9b2 b4bd 2bea 9f3d
00000080: 2326 1fbd 09ec 70bd 4df0 8c3d 9a76 ebbc
00000090: 12f8 47bd 8672 d9bc 945a 94bd 9ac6 273d
000000a0: 5d6a b0bb 8433 90bd 9a73 65bc 951d e93c
000000b0: 53ff 81bd 2c3a 61bd 5b2d 4dbd 247f a13c
000000c0: b813 e4bc 42e8 2a3d 7eeb fa3c bd1b 7e3c
000000d0: 7afb 2a3d 172c 453d 22c7 153d 8e6a 77bb
000000e0: a4bf 183d f01b 713d 194b a03d 4543 143c
000000f0: 1b54 1fbd 1045 a13d ce5a c2bc 0792 44bd
00000100: a074 d5bd 41d7 b9bd 8c0f 013d 4a72 46bd
00000110: 4892 873d 2816 48bd 0899 443d 7727 153d
00000120: 51ed 64bd ce2a b13c 180a 813d e733 c13c
00000130: 4838 bbbc e688 35bd b0b3 75ba 2664 833d
00000140: 1dd1 b73c 36ab 383d 1c40 afbb aead a6bc
00000150: 551e 0abc 25d2 57bc 9a4f 7b3d dd39 be3d
00000160: 28d3 04bd 042e 753c 3240 6f3d 6c89 bebd
00000170: efc3 34bd ff2d 363b 983c 613d e346 8a3d
00000180: 46ed 633d b70d ca3a 4e40 f1bc cbaf 4d3d
00000190: 466e 18bd 252f 8ebd 486c 95bd 32b7 743d
000001a0: 7c04 83bd 6e2c 4b3d ae91 873c 3f82 8cbc
000001b0: ee98 1d3c b013 a63a 7db3 983d 24f2 37bd
000001c0: 8c2d 5cbc 86e7 343d d637 19bd ae24 b03a
000001d0: dcdb a4bd ac41 493c 7fec cebc 8fa4 203d
000001e0: 8bea c23c 1d19 a13d 9d60 d5bc 627f 133d
000001f0: cdfb cd3b b878 ddbb 72e4 9e3d 262b c5bd
00000200: a4ca 2b3c b053 d03d 7a2e 7abc 3597 febc
00000210: b292 c0bd 01c4 a93c 5b0e a5ba 7a32 ccbb
00000220: e7b3 c3bb 9a16 a2bd 3cd4 c8bc 1056 4abd
00000230: 7694 30bd e6a7 29bc 4f3d 9b3d d260 11bd
00000240: 1f17 8ebc 21df dc3b 4454 d7bc 8097 9bbb
00000250: 8133 1c3c fb70 4d3d af99 0a3d 5d5c ac3c
00000260: 6dd9 683d 637d 5bbd 1ed2 793d 6fad e5bc
00000270: 2caf 04bd 9753 32bc b247 30bc 7017 63bd
00000280: ca03 3bbd a739 443c 1357 5b3c 0a2c c9bc
00000290: 890d 8ebd 3ff9 f43c 8ef0 983c 9933 1a3d
000002a0: 185c 06bd a1a8 633d 4568 89bd cd4e e0bc
000002b0: b609 703d d994 a5bd 49c6 843d b074 883d
000002c0: 8c49 073c dca8 43bd c26f c43d 08c3 6f3d
000002d0: a8b8 3ebc 077f 57bd 7869 433c 1172 a03d
000002e0: 96bf 613b beb0 20bd 4337 7e3d 8f6c 483d
000002f0: fc2b eabc 85c8 893c 2079 33bd aa9d 8b3d
00000300: eb7b 043d c0e5 31bc fdcc ddbc 768b 92bd
00000310: 814d 89bd 49e1 86bc a933 b8bd 4bed 953d
00000320: 3052 4f3d 2036 3dbd 9815 17bd 1687 60bd
00000330: 5dfe a93d ddc1 43bd ba2c d53b 45e7 373d
00000340: 9f1c cd3d ae9a e2bc 5c4b 25bd 1c66 1dbd
00000350: ee49 3c3d a151 99bd f1f5 d23c f7cf b53d
00000360: 3faf 86bb 8f07 3d3d c0f1 0d3c fe60 893d
00000370: 8bcf 8d3d e0e2 153c 0be6 7a3d aaa8 263d
00000380: fa93 55bb 7358 58bd d8fd 27bd 303b f3ba
00000390: c027 623c 1909 b2bd ba13 c53b 1963 adbd
000003a0: bb98 7abd 09d7 06bd 8794 123d 589c 3c3a
000003b0: 5c2f e83c a6bd 8b3d ba95 a33d 93f4 8e3b
000003c0: 66c9 87bd 214b 49bd fd50 593d ad80 e73c
000003d0: 22b3 8cbc ec95 8ebd a31f afbd 79df 0d3c
000003e0: 6c87 6e3d 0d94 b53d 3941 a4bd 165c 973d
000003f0: 42e5 97bb 954f 9cbd 7ae0 2cbc f18f ac3b
-0.024394048 0.076289065 -0.059567004 -0.04003295 -0.053211503 -0.014692797 -0.047766525 -0.018033497
-0.019964695 0.07351329 0.064916044 0.073228486 0.005771889 -0.0034276135 0.033563588 -0.060819536
0.05161777 0.04908954 0.045740835 0.022534743 -0.044956155 -0.059921872 -0.013878586 0.106020145
0.0319701 0.085433066 -0.026170678 0.033902675 0.04403443 0.03982577 -0.08823199 0.07808336
-0.03885473 -0.05881885 0.06881771 -0.028743077 -0.048820563 -0.026543867 -0.07243839 0.040960886
-0.0053837732 -0.07041076 -0.014004612 0.028456489 -0.06347527 -0.054987118 -0.050092082 0.019713946
-0.027841434 0.041725405 0.03062987 0.015509543 0.041743733 0.04813775 0.03656686 -0.003775272
0.037292138 0.058864534 0.07826824 0.009049241 -0.03889857 0.07874501 -0.02372494 -0.047990825
-0.10422635 -0.090742595 0.031508967 -0.04844884 0.06619698 -0.048849255 0.047997504 0.03641459
-0.055890385 0.021626856 0.06300753 0.02358432 -0.022853985 -0.04432001 -0.0009372784 0.06415586
0.02243858 0.045085154 -0.0053482186 -0.020346489 -0.008430083 -0.013172661 0.06135521 0.0928838
-0.032427937 0.014964584 0.05841083 -0.09303555 -0.04413217 0.0027798412 0.054989427 0.06751802
0.055646203 0.0015415464 -0.029449608 0.050216477 -0.03721454 -0.06942586 -0.07296044 0.05974502
-0.0639734 0.04960292 0.016548958 -0.01715195 0.009618981 0.0012670662 0.0745611 -0.044908658
-0.013438594 0.04416611 -0.037406765 0.0013438666 -0.08049747 0.012283724 -0.025259255 0.039219435
0.02379348 0.07866118 -0.026047045 0.036010154 0.0062861205 -0.0067587756 0.07758416 -0.096273705
0.010485325 0.10172212 -0.01526987 -0.03107796 -0.0940298 0.020723345 -0.0012592779 -0.006231603
-0.0059723738 -0.07914467 -0.024515264 -0.04939848 -0.043110333 -0.0103549715 0.07580053 -0.035492726
-0.01734501 0.006740466 -0.026285298 -0.004748285 0.009533764 0.050156575 0.03383797 0.021040136
0.05684798 -0.053586375 0.0609914 -0.028036801 -0.03239362 -0.010884187 -0.010759281 -0.055442274
-0.04565791 0.011976636 0.013387459 -0.024557132 -0.069361754 0.029904006 0.018669393 0.037646864
-0.03280267 0.05558074 -0.06709341 -0.027381325 0.05860301 -0.08085031 0.064831324 0.066628814
0.008257281 -0.04776846 0.095916286 0.058535606 -0.011640705 -0.052611377 0.011927001 0.078342564
0.003444647 -0.039231054 0.06206442 0.048931655 -0.028585427 0.016819248 -0.043816686 0.068171814
0.03234474 -0.010857999 -0.027075285 -0.07155506 -0.06704236 -0.016464846 -0.089942284 0.07320651
0.05061549 -0.046194196 -0.036885828 -0.054816328 0.08300469 -0.047792304 0.006505576 0.04489829
0.10015225 -0.027661648 -0.04035507 -0.038427457 0.045968942 -0.074862726 0.02575204 0.08877557
-0.0041102464 0.046149787 0.008663595 0.06707953 0.06924351 0.0091483295 0.061254542 0.040688194
-0.0032589422 -0.052818727 -0.04101357 -0.0018557068 0.013803422 -0.086931415 0.0060143145 -0.08466167
-0.06118081 -0.032919917 0.035786178 0.0007194928 0.028342895 0.06823282 0.079875425 0.0043626516
-0.066302106 -0.049143914 0.053055752 0.0282596 -0.01717526 -0.06962189 -0.08550956 0.008659237
0.058234617 0.08866129 -0.08020253 0.07390611 -0.004635484 -0.076323666 -0.010551566 0.0052661826
